models/pneumonia_cnn.pth (torch, 827233 bytes, 8 tensors)

conv1.weight f4 [16, 1, 3, 3]
0	0x3eb1f3fb	0.34756455
1	0x3eab79ec	0.33491457
2	0x3e89556c	0.26822984
3	0xbb70ce1a	-0.003674394
4	0x3ea9295f	0.33039376
5	0xbd499811	-0.049217287
6	0x3e7febc0	0.24992275
7	0x3e859a66	0.2609436
8	0xbe03f878	-0.12887752
9	0x3dfa20a1	0.12213255
10	0xbeb3bedd	-0.35106555
11	0x3e472d04	0.19450766
12	0x3e2f479d	0.17117162
13	0xbe0d0ec2	-0.13775161
14	0x3e8f4c90	0.279881
15	0xbef69aad	-0.48164883
16	0x3e4fe09c	0.20300525
17	0x3e17af55	0.14812978
18	0xbe6d56ce	-0.23177645
19	0xbe070690	-0.13186097
20	0xbea44412	-0.32083184
21	0x3ecdfacb	0.40230402
22	0x3e861a11	0.26191762
23	0xbe374c80	-0.17900276
24	0x3e792569	0.24330677
25	0xbe520276	-0.20508751
26	0x3e703943	0.23459344
27	0xbec81ea4	-0.39085877
28	0x3e4799cb	0.19492261
29	0xbe2feeb5	-0.17180903
30	0xbe05f0cd	-0.1308014
31	0x3e719766	0.2359291
32	0xbe8c7189	-0.2743037
33	0x3c246f30	0.010036275
34	0x3d8690d8	0.065705955
35	0x3e73c4d0	0.23805547
36	0xbe738863	-0.23782496
37	0x3db7b4e5	0.0897005
38	0x3ec15840	0.37762642
39	0xbe845ca1	-0.2585192
40	0xbe9342fa	-0.28762037
41	0x3e61d456	0.22053656
42	0xbe832b98	-0.25619197
43	0xbdfeb79f	-0.12437367
44	0xbe5859b1	-0.21127965
45	0x3eb2ec3e	0.34945863
46	0x3e98d345	0.29848686
47	0xbe0e2479	-0.138811
48	0xbe217bfd	-0.15769954
49	0x3e4616b3	0.19344597
50	0x3d424d3f	0.04743695
51	0x3e542135	0.20715792
52	0x3cd7f8cd	0.026363755
53	0x3d92f0e4	0.071748525
54	0x3e2acf56	0.16680655
55	0x3d8efb47	0.06981521
56	0x3e9cd65b	0.3063229
57	0x3eafc3c6	0.3432905
58	0xbe505a3d	-0.20346923
59	0xbe1c0233	-0.15235214
60	0x3e97e248	0.29664826
61	0xbcfd73eb	-0.030939063
62	0x3e16ef9a	0.14739838
63	0xbe2e7375	-0.17036231
64	0xbe7c446f	-0.2463548
65	0xbe01f616	-0.1269153
66	0xbd9b22ee	-0.07575022
67	0x3d907afb	0.07054707
68	0x3ea15610	0.31510973
69	0x3e444822	0.19168141
70	0x3df04e4b	0.11733683
71	0x3e7b1041	0.24517919
72	0x3e73d404	0.23811346
73	0x3eadcdd1	0.33946088
74	0x3e8a39e8	0.26997304
75	0x3e5e337d	0.21699329
76	0x3e9a48db	0.3013371
77	0x3e752a27	0.23941861
78	0x3e96c426	0.29446524
79	0x3d54670f	0.051856097
80	0x3d2bc587	0.041936424
81	0x3bcfb8fa	0.0063391896
82	0xbce99c59	-0.028516935
83	0xbe4db530	-0.20088649
84	0xbe0dc2af	-0.13843797
85	0xbe72d8ef	-0.23715566
86	0x3c9ac6bc	0.018893592
87	0xbd56e71e	-0.052466504
88	0xbd24b1c4	-0.040208593
89	0xbec1ca14	-0.37849486
90	0x3ea70bcf	0.32626197
91	0xbe8fab24	-0.28060257
92	0x3e6429c4	0.22281557
93	0x3d8fa115	0.07013146
94	0xbe4c7c47	-0.19969283
95	0xbe6a0366	-0.22852859
96	0xbd229e6b	-0.03970186
97	0x3a416291	0.0007377053
98	0xbe3be184	-0.18347746
99	0x3e699f0c	0.22814578
100	0xbea47151	-0.32117704
101	0xbe960480	-0.29300308
102	0xbec63bb0	-0.38717413
103	0xbe76de12	-0.2410815
104	0x3e861729	0.26189545
105	0x3cb49d3d	0.022047633
106	0x3e3885d2	0.18019798
107	0x3eaa8cb6	0.3331048
108	0x3e5e7d27	0.2172743
109	0x3e4793d5	0.19489987
110	0x3d1d134a	0.038348474
111	0x3ea71bb8	0.32638335
112	0xbd73049f	-0.05933058
113	0x3c56b76e	0.0131052565
114	0x3e74186b	0.2383744
115	0x3e2b5fcf	0.16735767
116	0x3d6c4273	0.05768056
117	0xbe5199ad	-0.20468779
118	0xbe956cda	-0.2918461
119	0xbda0077d	-0.07813928
120	0x3de08564	0.10962942
121	0x3e732803	0.23745732
122	0xbe051c10	-0.12998986
123	0xbc5e7a7e	-0.013579009
124	0xbe2dea50	-0.16983914
125	0xbdaa3df3	-0.08312597
126	0xbd4b952f	-0.04970282
127	0x3dee2d58	0.116297424
128	0xbd9f478a	-0.07777317
129	0x3c340f61	0.010989995
130	0x3e310bca	0.17289653
131	0x3e6ec48d	0.23317166
132	0x3e07df2d	0.13268729
133	0x3e86ff55	0.26366678
134	0xbe1cc1a7	-0.15308248
135	0x3e220770	0.1582315
136	0xbe80abd6	-0.251311
137	0xbeb2680e	-0.34845012
138	0x3ed092f4	0.40737116
139	0x3e750488	0.2392751
140	0xbe868a9b	-0.26277623
141	0x3eb2f891	0.34955266
142	0x3e77dfea	0.2420651
143	0xbe43dd6a	-0.19127432

conv1.bias f4 [16]
0	0x3e18ffdb	0.14941351
1	0xbd84ea74	-0.06490031
2	0xbd3b2788	-0.045691997
3	0x3d84ab96	0.0647804
4	0x3ccdcd5c	0.025122337
5	0xbd4e6ea6	-0.05039849
6	0x3b8be34e	0.00426904
7	0x3e17a438	0.14808738
8	0xbeb8bfdc	-0.36083877
9	0xbd7179a2	-0.05895389
10	0x3e483a9a	0.19553605
11	0xbe87ff54	-0.26561987
12	0x3e0b8060	0.1362319
13	0x3e8249e2	0.25446993
14	0xbe011e91	-0.12609316
15	0xbe33a826	-0.17544612

conv2.weight f4 [32, 16, 3, 3]
0	0xbd46ac50	-0.048504174
1	0x3cb48de1	0.02204031
2	0xbccb2163	-0.024796193
3	0xbda43ede	-0.080198035
4	0xbdceb05c	-0.10092232
5	0x3d2b7028	0.041855007
6	0xbdc86335	-0.09784547
7	0xbd86d965	-0.065844335
8	0xbdaf7b46	-0.085684344
9	0xbe2ac113	-0.16675214
10	0x3cb289f9	0.021794306
11	0xbdd331da	-0.10312243
12	0xbe1b3c7f	-0.15159796
13	0xba0f287e	-0.0005461051
14	0xbe043e2d	-0.12914343
15	0xbdc07571	-0.093974
16	0xbe0696b5	-0.13143428
17	0xbd98eb82	-0.074667946
18	0xbdb6be30	-0.08922994
19	0xbddcca35	-0.107807554
20	0xbdea9d25	-0.11455754
21	0xbe31708c	-0.1732809
22	0xbde9a055	-0.11407534
23	0xbd85fc57	-0.06542271
24	0xbe1a42fd	-0.15064617
25	0xbd997ee2	-0.07494904
26	0xbd1df751	-0.038565937
27	0xbc88e480	-0.01671052
28	0x3c87a475	0.016557911
29	0x3d03e57b	0.03220127
30	0xbcdbc1b1	-0.026825758
31	0x3d1b405a	0.037903167
32	0xbda8022a	-0.08203538
33	0x3d9f21a2	0.07770087
34	0x3d964df4	0.07339087
35	0x3bb2e8dc	0.005459888
36	0xbd04aa10	-0.032388747
37	0x3d94296f	0.07234465
38	0x3da63521	0.08115602
39	0x3dc4e612	0.09614195
40	0xbc223017	-0.009899161
41	0x3cc61ffc	0.024185173
42	0xbc8549ca	-0.016270537
43	0x3cb76be8	0.02239032
44	0xbcbe9f7a	-0.023269404
45	0xbd43c27c	-0.047792897
46	0xbdafa623	-0.0857661
47	0x3c9721cb	0.01844873
48	0xbca93c2a	-0.020658571
49	0x3cb1ce7f	0.02170491
50	0xbce72984	-0.028218038
51	0xbd8d0971	-0.068865664
52	0xbd1ebb72	-0.03875298
53	0xbd1ea1d6	-0.038728558
54	0xbd874d95	-0.066065945
55	0xbd75936d	-0.05995505
56	0x3cbe3c0b	0.02322199
57	0xbda118d0	-0.07866061
58	0x3cc172a6	0.023614239
59	0x3d3969df	0.045266982
60	0xbd7eac71	-0.06217617
61	0xbdcfd5b3	-0.10148182
62	0xbd8fcbae	-0.07021271
63	0xbb96b4f0	-0.004599206
64	0x3d5706a6	0.052496575
65	0x3d9960bc	0.07489154
66	0xbaf2c784	-0.0018522595
67	0x3c3ff922	0.011717113
68	0xbdaa410b	-0.08313187
69	0x3d165292	0.03669984
70	0x3da791ed	0.0818213
71	0x3d9ae9cf	0.07564127
72	0xbca8b155	-0.020592371
73	0xbe0a1358	-0.13483942
74	0xbd2f66a3	-0.04282249
75	0x3a2bb819	0.0006550565
76	0xbe0d6966	-0.13809738
77	0xbd48075a	-0.048835136
78	0xbda50490	-0.08057511
79	0xbd3702d0	-0.044680417
80	0xbe62bd83	-0.22142605
81	0xbd94d882	-0.07267858
82	0xbd0d3f10	-0.03448397
83	0xbdb87faf	-0.09008729
84	0xbad5f3db	-0.0016323285
85	0xbdc59df8	-0.09649271
86	0x3d8580ac	0.06518683
87	0xbcc736c8	-0.024318114
88	0xbadbae89	-0.001676039
89	0xbd813fcb	-0.06310996
90	0x3cc46b2b	0.023976883
91	0x3d2cf68f	0.042227324
92	0x3d423f58	0.04742369
93	0x3d319c17	0.04336175
94	0x3d53dcb5	0.051724155
95	0x3c4553a8	0.012043871
96	0xbd0aa556	-0.033849083
97	0x3d02022a	0.031740345
98	0x3c9c9ba1	0.019117178
99	0xbe801758	-0.2501781
100	0xbe40845c	-0.18800491
101	0xbe198a24	-0.14994103
102	0xbda6a278	-0.08136457
103	0xbdfc11df	-0.12308096
104	0xbd350c12	-0.044200964
105	0xbdaca844	-0.084305316
106	0xbded381a	-0.11582966
107	0xbb582bb1	-0.0032985026
108	0x3ce45ceb	0.027876338
109	0xbdac2baa	-0.08406766
110	0x3dceb8f2	0.10093869
111	0xbdc929f6	-0.098224565
112	0x3d506484	0.05087711
113	0x3d21335f	0.039355632
114	0xbde98979	-0.11403174
115	0xbd471aed	-0.048609663
116	0xbd9579fa	-0.07298656
117	0x3dbfb5a8	0.0936082
118	0xbc96fc2a	-0.018430788
119	0x3c6b837a	0.014374608
120	0xbcff8d51	-0.031195315
121	0x3cda90ad	0.026680315
122	0x3d64cd5d	0.055859912
123	0x3cb2f32e	0.021844473
124	0x3ce9fe02	0.028563503
125	0x3d3cb616	0.04607209
126	0xbe158ed3	-0.14605264
127	0xbcd02880	-0.025409937
128	0x3c1ed9e9	0.0096955085
129	0xbd3fc303	-0.046816837
130	0xbd6b9b13	-0.057520937
131	0xbd0fac45	-0.0350764
132	0xbcca3ba6	-0.024686646
133	0xbc939b78	-0.01801847
134	0xbe3d44d2	-0.18483284
135	0xbd3073ad	-0.043079067
136	0xbdea0664	-0.11427
137	0xbcc7d978	-0.02439569
138	0xbe105d08	-0.14097989
139	0xbdf5680c	-0.11982736
140	0xbdba3468	-0.09092027
141	0xbe28ceac	-0.16485089
142	0xbc9e5d8a	-0.019331712
143	0x3d2233b4	0.03960009
144	0xb99c09a6	-0.00029761827
145	0xbc474a2b	-0.012163679
146	0x3db10a8e	0.08644591
147	0xbd745f4e	-0.059661202
148	0xbd16b547	-0.036793973
149	0x3de49c83	0.11162665
150	0x3d703ef0	0.058653772
151	0xbdd67060	-0.104706526
152	0x3cafeacf	0.02147427
153	0xbdc0eabe	-0.094197735
154	0x3d21ff6d	0.039550234
155	0x3d09d9fa	0.033655144
156	0xbe3a9d72	-0.18224123
157	0x3dcc0910	0.09962666
158	0x3b11a980	0.0022226274
159	0xbdca6deb	-0.098842464
160	0xbd22f71a	-0.039786436
161	0x3db05235	0.0860943
162	0xbd2b9c9d	-0.041897405
163	0xbcf0764e	-0.029353287
164	0x3da5f13a	0.08102651
165	0x3c6fc25f	0.014633744
166	0xbdac0ba5	-0.084006585
167	0xbdb8cde9	-0.09023649
168	0xbdd26d8d	-0.102748014
169	0xbd86b2b0	-0.06577051
170	0xbe05bed0	-0.1306107
171	0x3d62ee22	0.055402882
172	0xbd204730	-0.03913039
173	0x3dcd478b	0.10023411
174	0xbcdf5f7f	-0.027267216
175	0xbd8e4b91	-0.06948007
176	0xbddd2116	-0.10797326
177	0xbd43bf72	-0.04779
178	0xbde2d281	-0.11075307
179	0xbc704a69	-0.014666178
180	0xbcea24c0	-0.028581977
181	0x3d8ce441	0.068794735
182	0xbd0ecdde	-0.0348643
183	0x3d29a405	0.041416187
184	0xbd0b1fe5	-0.033965964
185	0x3dfe0805	0.12403873
186	0xbc2dbde9	-0.01060436
187	0x3dcf3c14	0.10118881
188	0x3dc40c7d	0.095726945
189	0xbcd177f3	-0.025569892
190	0xbc1bf8e7	-0.009519792
191	0xbce44623	-0.027865475
192	0x3d978f55	0.07400385
193	0xbdd5feef	-0.10449015
194	0x3c4d9478	0.012547605
195	0xbce432fd	-0.027856344
196	0x3cfc023e	0.030762788
197	0x3dbccf43	0.092192195
198	0xbc8b187e	-0.016979452
199	0x3a9c423a	0.0011921593
200	0xbc787cb2	-0.015166448
201	0x3bd3877a	0.006455359
202	0xbd4faf5b	-0.05070434
203	0xbbf97d4e	-0.0076138144
204	0xbd9715bd	-0.07377193
205	0x3cd6b986	0.026211511
206	0xbc25f2e1	-0.010128708
207	0x3c8cace5	0.017172286
208	0xbd358f95	-0.044326384
209	0x3b2532ed	0.0025207356
210	0xbe165abc	-0.1468305
211	0xbd94d160	-0.072664976
212	0xbd326c8c	-0.04356055
213	0xbdbb552d	-0.09147105
214	0xbd48f57b	-0.049062233
215	0x3ca00a28	0.019536093
216	0xbc3c8f49	-0.011508771
217	0x3db1395c	0.086535186
218	0x3db19559	0.08671064
219	0xbdb2c7d6	-0.08729522
220	0xbd50d15a	-0.050980903
221	0x3c8f2097	0.017471595
222	0x3cd2a232	0.025712106
223	0x3d668e66	0.056288145
224	0x3db4673d	0.08808754
225	0xbb61c975	-0.0034452353
226	0xbcd5ae4e	-0.026084092
227	0xbddf59a6	-0.10905771
228	0x3d0adaa8	0.033899933
229	0x3be2e89d	0.0069247023
230	0xbda5e4d8	-0.08100289
231	0x3de92d9e	0.11385654
232	0x3c9c7c3a	0.019102205
233	0x3cc82013	0.024429357
234	0x3da9b9c6	0.082873866
235	0x3dc5dcd8	0.09661263
236	0x3cba27e0	0.022724092
237	0xba69e52f	-0.00089223956
238	0xbcbd1166	-0.023079585
239	0xbd87b12b	-0.06625589
240	0x3dbffe56	0.093746826
241	0xbd620b24	-0.055186406
242	0xbd839ec8	-0.064267695
243	0x3d25a919	0.040444467
244	0xbd0f75b7	-0.03502437
245	0xbc8f9e60	-0.017531574
246	0xbe01f7cd	-0.12692185
247	0xbe283cc3	-0.16429429
248	0xbdcac1f8	-0.09900278
249	0xbdf86921	-0.12129427
250	0xbe0914b5	-0.13386805
251	0xbde105c1	-0.109874256
252	0xbcdb40ac	-0.026764236
253	0xbde0e061	-0.10980297
254	0x3d8d1511	0.06888784
255	0x3c5505a9	0.013001838

conv2.bias f4 [32]
0	0x3df496f7	0.11942857
1	0x3d8c79a7	0.06859141
2	0x3de5b2a9	0.11215717
3	0xbd1545fd	-0.0364437
4	0x3d91e8de	0.07124494
5	0xbd771f9e	-0.060332887
6	0x3ba58020	0.005050674
7	0x3bfe627a	0.007763204
8	0x3d929aca	0.0715843
9	0x3cad30a5	0.02114136
10	0xbcbc9a7c	-0.023022883
11	0xbd901e38	-0.07037014
12	0xbdcf2b81	-0.101157196
13	0x3cd17814	0.025569953
14	0x3bcda3c8	0.0062756278
15	0xbd678563	-0.056523692
16	0x3de11f8f	0.109923474
17	0x3cc0ba38	0.023526296
18	0x3d927e6c	0.07153019
19	0xbd6f1acc	-0.058375165
20	0x3dbc2edc	0.09188625
21	0xba7e4f7e	-0.00097011763
22	0x3ccad3c0	0.024759173
23	0x3d139985	0.03603508
24	0x3d88e32d	0.06683955
25	0xbc9d268c	-0.01918342
26	0xbdce022e	-0.100590095
27	0xbdf2b7bd	-0.118514515
28	0xbc66aa30	-0.014078662
29	0xbd910cf5	-0.070825495
30	0xbd8cc2c9	-0.0687309
31	0x3d88ae0d	0.066738226

fc1.weight f4 [128, 1568]
0	0xbcd24d4f	-0.02567163
1	0xbc812b51	-0.015767725
2	0xbc0759e2	-0.008261176
3	0xbc563dd4	-0.013076264
4	0xbc7dcb27	-0.01549033
5	0xbc822da3	-0.015890902
6	0xbb9a8ef4	-0.0047167484
7	0x3b01e796	0.0019821874
8	0x3ccca0f1	0.024979087
9	0xbc60df93	-0.013725179
10	0xbc47ffb9	-0.012206965
11	0x3b1f5f5c	0.0024318313
12	0x3b3e3e0b	0.002902868
13	0xbc4d7761	-0.012540669
14	0xbcefb845	-0.029262671
15	0x3cf1d955	0.029522577
16	0xbcf25dd2	-0.029585753
17	0x3c12a476	0.008950343
18	0xbbdd863a	-0.006760386
19	0xbcea86c8	-0.028628722
20	0x3c87e1c9	0.016587155
21	0xbc8ab124	-0.01693017
22	0x3b904769	0.004403044
23	0xbca173ec	-0.019708596
24	0xbb965ee7	-0.00458895
25	0xbc202284	-0.009773854
26	0xbc3b0ac1	-0.011416138
27	0x3ac23460	0.0014816634
28	0x3994c727	0.0002837714
29	0xbcd45f51	-0.025924357
30	0xbcf1d2d9	-0.029519485
31	0xbc63453a	-0.013871485
32	0x3caebdb8	0.0213307
33	0x3bf9edcd	0.007627225
34	0xbcdb60a1	-0.026779475
35	0xbc805986	-0.015667688
36	0xbc3a0e2a	-0.011355916
37	0xbc54c323	-0.012985977
38	0x3c5ffe08	0.013671406
39	0x3cce345c	0.025171451
40	0xbbc57a66	-0.006026554
41	0xbbb505da	-0.005524379
42	0x3c6f25d8	0.014596425
43	0xbcf5122b	-0.02991589
44	0x3a6468d7	0.0008713132
45	0xbc0e6648	-0.008691378
46	0xbcb0b2c0	-0.02156961
47	0xbba5e251	-0.0050623794
48	0x3b446982	0.0029970114
49	0x3b72e4ee	0.0037062722
50	0x3c4a4352	0.012345152
51	0x3c8124b8	0.01576458
52	0x3cbaa8d5	0.022785584
53	0xbc03b279	-0.008038157
54	0x3b0491e3	0.0020228557
55	0x3a35f9b5	0.00069418113
56	0xbbdf42b5	-0.006813372
57	0xbc92f199	-0.017937468
58	0x3a4526ad	0.0007520717
59	0x3c0c7221	0.008572132
60	0xbc09762c	-0.008389991
61	0xbcc82cf8	-0.024435505
62	0x3c815ded	0.015791858
63	0xbcef42b1	-0.029206606
64	0xbab9c1d3	-0.0014172144
65	0xbcce0dba	-0.02515303
66	0xbc9559db	-0.018231323
67	0xbcb43166	-0.021996211
68	0xbcd1c1a3	-0.025605028
69	0xbc47b5af	-0.012189313
70	0xbc3036ea	-0.01075528
71	0x3c1bc416	0.0095072
72	0xbc628365	-0.013825272
73	0xbba6634c	-0.005077755
74	0x3c872cea	0.016500909
75	0xbcbe2d89	-0.023215072
76	0x3c96edc4	0.018423922
77	0x3adc3634	0.0016800822
78	0x3c616db9	0.01375907
79	0xbba13bac	-0.0049204435
80	0xbcde5370	-0.027139395
81	0x3c851534	0.016245462
82	0xb9060f56	-0.00012784949
83	0xbbc16885	-0.0059023523
84	0xbb7a2eb5	-0.0038174812
85	0x3c864178	0.01638864
86	0xbc028263	-0.007965657
87	0x3be11dd5	0.0068700113
88	0xbc8e18b8	-0.017345771
89	0x3c60c95c	0.013719883
90	0x3b766178	0.0037594717
91	0xbcd6d72c	-0.026225649
92	0x3c93dc77	0.018049462
93	0x3c748e24	0.014926467
94	0xbc1403ce	-0.00903411
95	0xbabff510	-0.0014645178
96	0x3cd5751c	0.026056819
97	0x3cc2cfc0	0.023780704
98	0xba5aa94b	-0.00083412667
99	0xbc208239	-0.0097966725
100	0x3c819755	0.015819231
101	0x3cc6d27b	0.024270287
102	0x3c9f5739	0.01945077
103	0x3c00cbc2	0.00786108
104	0xbc6ee8a0	-0.014581829
105	0x3b5c817b	0.0033646512
106	0x3cf8fde4	0.030394502
107	0xbced0d3b	-0.028936973
108	0x3c247d42	0.010039629
109	0x3c82ca39	0.015965568
110	0xbb35c6f3	-0.0027736991
111	0xbcacce2f	-0.02109441
112	0xbb72313e	-0.003695562
113	0xbcd79910	-0.026318103
114	0xbbaeda7a	-0.005336103
115	0x3c5fbd8f	0.013656034
116	0xbcbfe564	-0.023424812
117	0x3be81c5f	0.00708346
118	0xbcd6adf1	-0.026205989
119	0xbcd1fde6	-0.025633764
120	0x3bf87024	0.0075817276
121	0xb8b35d39	-8.552749e-05
122	0x3bcffa60	0.0063469857
123	0xbc83c3fc	-0.016084664
124	0xbcc309a6	-0.023808312
125	0x3c3345fc	0.010941979
126	0x3c113d1b	0.008864666
127	0xbce15d14	-0.027510203
128	0x3c925f89	0.01786782
129	0xbc64e641	-0.013970912
130	0x3c9c76c7	0.019099606
131	0xbb5d896d	-0.0033803836
132	0xbcd1314a	-0.025536198
133	0xbc25b0c9	-0.01011295
134	0xbc523c00	-0.012831688
135	0xbad8941e	-0.0016523635
136	0x3c153b54	0.009108383
137	0x3c66ca24	0.01408628
138	0x3c552eef	0.013011678
139	0xbc7e16d1	-0.01550837
140	0x3ca1fa76	0.01977275
141	0x3a80c2f5	0.0009823727
142	0x3c6455bf	0.013936459
143	0x3c14d164	0.009083126
144	0x3c7dbefd	0.01548743
145	0xbc23aea6	-0.00999037
146	0x3ca71203	0.02039433
147	0xbce55d19	-0.027998494
148	0x3a86f762	0.0010297114
149	0x3c72ead3	0.014826494
150	0xbcb638a4	-0.022243805
151	0xbc9e4201	-0.019318582
152	0x3ba6a52e	0.005085609
153	0x3b8cb2c9	0.004293774
154	0xbcb74396	-0.022371095
155	0x3c524e36	0.01283603
156	0x3c1de87b	0.009637947
157	0xbc14a359	-0.009072148
158	0x3c755003	0.01497269
159	0xbc69f45c	-0.014279451
160	0xbad6af6b	-0.0016379183
161	0xbc3111f0	-0.010807499
162	0xbc9f1c9a	-0.019422818
163	0x3c4b23ba	0.012398655
164	0xbcf51794	-0.02991847
165	0xbaeedffd	-0.0018224713
166	0xbc57f4f8	-0.013180964
167	0xbc1ebf10	-0.009689108
168	0xbc9a6089	-0.01884486
169	0xbc5ae56f	-0.013360365
170	0xbc54da3a	-0.012991482
171	0x3b94cbd9	0.004540902
172	0xbca36c97	-0.01994924
173	0xbc818ebf	-0.015815137
174	0xbc0489d2	-0.0080895
175	0xbbffe1e4	-0.0078089107
176	0x3a848d05	0.0010112828
177	0x3c7eeb69	0.015559056
178	0x3c3f6281	0.0116812
179	0x3bb2f2b2	0.0054610604
180	0x3c8cea19	0.01720147
181	0x3c6354ee	0.013875229
182	0xbc22b8fe	-0.009931801
183	0x3b193f58	0.0023383703
184	0xbc8751d9	-0.01651852
185	0xbc7fbf92	-0.015609639
186	0x3ba84e9d	0.0051363246
187	0xbc572ae0	-0.013132781
188	0xbcb870f0	-0.02251479
189	0x3c1f26e8	0.009713866
190	0xbcf4455d	-0.029818231
191	0x3be226ee	0.0069016134
192	0xbca38d53	-0.01996485
193	0xbbbf1058	-0.0058308057
194	0xbca14722	-0.01968724
195	0xbc788e56	-0.015170654
196	0xbbe094fa	-0.006853697
197	0xbcaf3395	-0.0213869
198	0xbca6e2f3	-0.02037189
199	0xbc02462c	-0.007951301
200	0xbc9c1ee3	-0.019057697
201	0x3c3aa7ae	0.011392517
202	0xbc0e024d	-0.008667541
203	0xbc5e9abd	-0.013586697
204	0x3c30293b	0.010752018
205	0xbcf21cf0	-0.029554814
206	0xbc6a0f42	-0.014285864
207	0x3b6a8d61	0.0035789835
208	0x3c80ba90	0.01571396
209	0xbced4d87	-0.028967632
210	0xbc448a6d	-0.011995894
211	0xbc6adab4	-0.014334369
212	0xbb0f8ab5	-0.0021902744
213	0xbb8b9d0a	-0.004260664
214	0x3c02ebca	0.007990787
215	0xbc98c87a	-0.018650282
216	0xbb1596c7	-0.0022825466
217	0x3c1cfc33	0.009581613
218	0xbb646250	-0.0034848638
219	0xbc473166	-0.012157774
220	0xbc400360	-0.011719555
221	0x3c9cb538	0.01912938
222	0x3ca0a605	0.019610414
223	0xbcd5fbbf	-0.026121018
224	0x3c9ba503	0.018999582
225	0xbc0331f0	-0.0080075115
226	0xbc909e7e	-0.0176537
227	0xbcb25845	-0.021770606
228	0x3c824542	0.015902165
229	0xbc71eb11	-0.014765517
230	0xbcbd8147	-0.023132933
231	0xbc8fb376	-0.017541628
232	0xbc1d7285	-0.009609823
233	0xbcd2dd0e	-0.025740173
234	0xbc64480d	-0.013933194
235	0xbc22fb5e	-0.009947626
236	0xbc3545c1	-0.011063994
237	0x3c6c5e6c	0.014426809
238	0x3c99c6dd	0.018771583
239	0xbafcc268	-0.0019284012
240	0xbba08e1b	-0.004899753
241	0xbabe9db0	-0.0014542844
242	0xbc1648c4	-0.009172622
243	0xbcd2050e	-0.025637176
244	0xbcf3ed22	-0.02977616
245	0xbb3d36a6	-0.0028871684
246	0xbc83db08	-0.016095653
247	0xbbc1140a	-0.0058922814
248	0xbc8e1e79	-0.017348515
249	0xb977d6de	-0.000236358
250	0x3bb12225	0.0054056817
251	0x3c6e3ce8	0.014540888
252	0xbc2107e3	-0.0098285405
253	0x3c5de3bf	0.013543068
254	0xb9f866e9	-0.0004737892
255	0xbbae9295	-0.0053275325

fc1.bias f4 [128]
0	0x3b05fb88	0.0020444114
1	0x3a86c7a4	0.0010282886
2	0x3be3ee5e	0.006955906
3	0x3d036023	0.032074105
4	0x3bdd7298	0.0067580454
5	0x3d2bc3ec	0.041934893
6	0xbcf2d67f	-0.029643295
7	0xbcd65adf	-0.026166378
8	0xbc7806d6	-0.015138349
9	0x3d31278c	0.043250605
10	0x3bd91be4	0.0066256393
11	0xbcaa3da5	-0.020781348
12	0x3d0cef87	0.03440812
13	0x3c91fd22	0.017820898
14	0x3d11b0b2	0.0355689
15	0xbb98c265	-0.0046618455
16	0xbb864108	-0.004097108
17	0x3d73161f	0.05934727
18	0xbbd73da9	-0.0065686298
19	0x3d2c64ad	0.0420882
20	0xbca8f5c3	-0.020625
21	0x3be28586	0.00691289
22	0x3d6ae3a2	0.057345994
23	0xbbda4360	-0.0066608638
24	0x3c7ae094	0.015312333
25	0xbb5b5b11	-0.0033471028
26	0x3c7b6d4f	0.015345885
27	0x3c09dec6	0.00841493
28	0x3d686401	0.056735996
29	0x39306cb2	0.0001682516
30	0x3d555a96	0.052088343
31	0x3bba0d10	0.0056778267
32	0x3cf71bbc	0.030164592
33	0x3c5f4fb4	0.013629843
34	0x3d558996	0.052133165
35	0xbaf159a4	-0.0018413556
36	0x3c7d5ed9	0.015464508
37	0xbcc51aa4	-0.024060555
38	0xba93a0ca	-0.0011263129
39	0xbcb51241	-0.02210343
40	0xbbd1be80	-0.006400883
41	0x3bc90684	0.00613481
42	0x3d67d324	0.056597844
43	0x3d4362c0	0.047701597
44	0x3d44e9ff	0.04807472
45	0xbc667771	-0.014066563
46	0xbc3cf9bd	-0.011534152
47	0x3c4ec58b	0.01262034
48	0x37cf5595	2.4716175e-05
49	0x3c1376ea	0.009000519
50	0xbbf434de	-0.0074525913
51	0xbcb14b12	-0.021642242
52	0x3d624cf4	0.05524917
53	0xbb8b2bdb	-0.0042471713
54	0xbcb7e083	-0.022445923
55	0x3b927abc	0.0044701975
56	0x3c9bb693	0.019007957
57	0x3b32ef33	0.0027303218
58	0xbcd56bb6	-0.026052337
59	0x3cae4765	0.021274278
60	0xbc25a528	-0.010110177
61	0xbb7ae005	-0.0038280499
62	0x3d5172df	0.05113494
63	0x3c6cb20b	0.014446746
64	0x3d258217	0.040407266
65	0xbcdda8f3	-0.0270581
66	0xbcba184d	-0.022716666
67	0xbb5431ab	-0.0032378237
68	0x3c342f25	0.010997568
69	0x3bf16e0c	0.007367855
70	0xbc72609e	-0.014793543
71	0xbd39146a	-0.045185484
72	0xbcbef8aa	-0.023311932
73	0xbbae264f	-0.0053146253
74	0x3c48d076	0.012256732
75	0x3d3ee258	0.046602577
76	0xba9a76d8	-0.0011784686
77	0xb987ac84	-0.0002587774
78	0xb9f54fdc	-0.0004678954
79	0x3d89aa4f	0.06721937
80	0x3bf42775	0.0074509927
81	0xbcc9101d	-0.024543816
82	0xbba96245	-0.0051691853
83	0x3d2f1eeb	0.042754095
84	0x3d03af02	0.032149322
85	0xbc917461	-0.01775569
86	0xbb9e6810	-0.0048341826
87	0xbcd7be8d	-0.026335979
88	0x3cacd594	0.021097936
89	0x3d3b8bbe	0.045787565
90	0x3cdc835a	0.026918102
91	0x3c5afaf8	0.0133655
92	0xbc032926	-0.008005416
93	0x3ae7a0f8	0.0017671874
94	0x3c87d3a1	0.016580405
95	0x3c94967a	0.018138159
96	0x3ce584e6	0.028017472
97	0x3d512b4d	0.051066685
98	0x3d06f68d	0.032949973
99	0x3d71ef9e	0.059066407
100	0x3b835815	0.004008303
101	0x3c99592d	0.01871928
102	0xbb458ebb	-0.0030144888
103	0x3d11752e	0.035512142
104	0x3b7f9440	0.0038998276
105	0xbc453cc9	-0.012038418
106	0x3d778586	0.060430072
107	0xbc986572	-0.01860306
108	0x3c18a0d9	0.009315693
109	0x3bb8a264	0.005634593
110	0x3c7be8b3	0.015375304
111	0x3cb8e05f	0.022567926
112	0x3c3bd62f	0.01146464
113	0x3c73b36c	0.0148743205
114	0xbc9f5440	-0.019449353
115	0xbb542a74	-0.0032373937
116	0x3d28e1d5	0.041230995
117	0x3d081cf2	0.03323073
118	0x3d3f42b5	0.046694476
119	0x3d8e732b	0.0695556
120	0xbc762a39	-0.015024715
121	0x3d289267	0.041155245
122	0x3c7ce745	0.015435998
123	0xbcb97d3b	-0.022642722
124	0x3d0e5416	0.03474816
125	0x3c23ef77	0.010005823
126	0x3c0da77d	0.008645889
127	0x3d2656ff	0.04061031

fc2.weight f4 [2, 128]
0	0xbcb1b00e	-0.021690395
1	0x3b99a535	0.0046888837
2	0x3d272624	0.040807858
3	0xbe23d667	-0.15999757
4	0xbd7734be	-0.060353033
5	0xbd606490	-0.054783404
6	0x3d98460b	0.07435235
7	0x3d75807c	0.059936985
8	0xbcc6adea	-0.02425285
9	0xbdc1d088	-0.09463602
10	0xbd4761fc	-0.04867743
11	0x3cbdf187	0.023186458
12	0x3d8fad84	0.07015517
13	0x3ceb5288	0.028725877
14	0xbe4c1e7b	-0.19933502
15	0x3cf4407e	0.029815909
16	0x3ccc6da0	0.024954617
17	0xbe283f72	-0.16430452
18	0x3d465d1d	0.048428643
19	0xbbaf165a	-0.0053432407
20	0xbd41c745	-0.04730918
21	0xbdd2223b	-0.10260435
22	0xbe0825b7	-0.13295637
23	0x3ce8195d	0.028332407
24	0xbd157366	-0.036487006
25	0xbcb17d61	-0.02166623
26	0xbdabd47e	-0.08390139
27	0xbde95b30	-0.11394346
28	0xbdbc6c0b	-0.09200295
29	0x3c750dfa	0.014956946
30	0xbdf3d6bd	-0.119061925
31	0xbd7864f0	-0.060643137
32	0x3dc6255e	0.09675096
33	0x3d7a309f	0.061081525
34	0xbd7d34b4	-0.06181784
35	0xbda3af35	-0.079924025
36	0xbd1020f3	-0.035187673
37	0x3d223071	0.03959698
38	0x3d4ca4ca	0.049961843
39	0xbd8e8b5f	-0.06960177
40	0x3d07e5c1	0.033178095
41	0x3d0bc0f4	0.03411956
42	0xbe0a6a7b	-0.13517182
43	0xbd87b44f	-0.06626188
44	0xbe106cfb	-0.14104073
45	0x3c305d32	0.010764407
46	0x3d4dd898	0.050255388
47	0xbd818956	-0.06325023
48	0x3d9f083c	0.077652425
49	0xbe247f98	-0.16064298
50	0xbd0f0ee2	-0.034926303
51	0xbd085fbf	-0.033294436
52	0xbd744156	-0.05963262
53	0x3cf683be	0.030092116
54	0x3d7fa847	0.06241634
55	0x3d31901d	0.043350328
56	0x3cea97df	0.02863687
57	0x3d7e135e	0.06203019
58	0xbd90c2ce	-0.07068406
59	0xbce3d4c1	-0.02781141
60	0xba05238d	-0.0005078845
61	0x3d07f43a	0.033191897
62	0xbd60c18d	-0.054872084
63	0x3d583575	0.052785356
64	0xbd974d13	-0.073877476
65	0x3d3305b0	0.043706596
66	0x3d8b4d1a	0.06801815
67	0x3cf21c13	0.029554402
68	0xbd9d7dfa	-0.07690044
69	0x3d2b698c	0.041848704
70	0x3da7ad25	0.081873216
71	0xbca4f8c8	-0.02013816
72	0x3cc0f829	0.023555832
73	0x3ce73ef8	0.028228268
74	0xbd7378fb	-0.059441548
75	0xbd5b8f2f	-0.053603347
76	0x3d9d7b3a	0.07689519
77	0x3d945e94	0.07244602
78	0xbc9fb921	-0.019497456
79	0xbe1644ac	-0.14674634
80	0xbdb18cae	-0.08669411
81	0x3d19eb59	0.03757796
82	0x3d95c1f8	0.07312387
83	0x3c5c058c	0.013429057
84	0x3dd510e7	0.104036145
85	0xbcf2022e	-0.029542055
86	0x3abb8ddc	0.0014309245
87	0x3a082d03	0.00051946956
88	0xbde713dc	-0.11283085
89	0xbe26f7c0	-0.16305447
90	0xbd92bbc9	-0.071647234
91	0x3b8e364e	0.0043399697
92	0x3d7c69a7	0.061624195
93	0x3c25ea96	0.01012673
94	0xbcf73b44	-0.030179627
95	0x3d9e27c7	0.07722431
96	0xbddb62fe	-0.10712241
97	0xbd7c8526	-0.061650418
98	0x3ad8ce1a	0.0016540915
99	0xbe4f2ce0	-0.20231962
100	0x3d4c97ed	0.049949575
101	0x3d2a8820	0.041633725
102	0x3d34c35e	0.04413163
103	0x3daf2574	0.085520655
104	0xbd287e98	-0.041136354
105	0x3be2dc75	0.006923253
106	0xbdc936f0	-0.098249316
107	0xbd2e8e32	-0.042616077
108	0x3d3a009f	0.04541075
109	0x3d99ec53	0.075157784
110	0xbdd30733	-0.103041075
111	0xbddf4ce0	-0.109033346
112	0xbd9ba666	-0.07600097
113	0xbd3deeb5	-0.046370227
114	0x363f4494	2.8501136e-06
115	0x3d779c61	0.06045187
116	0xbe1bc3fb	-0.1521148
117	0xbe09adbc	-0.1344518
118	0xbc72d148	-0.014820404
119	0xbe066eb6	-0.1312817
120	0x3d898d7d	0.0671644
121	0xbdfa8ffa	-0.122344926
122	0xbd4b2a9b	-0.04960118
123	0xbd2395b4	-0.03993769
124	0xbcdbc62c	-0.026827894
125	0xbdb634b8	-0.08896774
126	0xbd172c49	-0.036907468
127	0xbd66f18e	-0.05638271
128	0x3d8bbaf9	0.068227716
129	0xbcfae58a	-0.03062703
130	0xbc85b65e	-0.016322311
131	0x3d26e773	0.04074807
132	0xbda81018	-0.08206195
133	0x3e00edd3	0.12590723
134	0x3aff79dc	0.0019491273
135	0x3d8ec12f	0.069704406
136	0xbd2f4618	-0.042791456
137	0x3cffc512	0.0312219
138	0xbd4f6d2e	-0.05064123
139	0xbaed1160	-0.0018086843
140	0xbe0184de	-0.12648341
141	0xbd991d78	-0.07476324
142	0x3e4592d9	0.19294299
143	0xbbb3daee	-0.005488745
144	0xbd96a5d1	-0.07355846
145	0x3e1ba317	0.15198933
146	0x3d2dfec7	0.042479303
147	0x3e130146	0.14355955
148	0xbd4a2055	-0.04934724
149	0x3db04a9d	0.08607981
150	0x3d9e121c	0.07718298
151	0xbc7b67c5	-0.015344565
152	0xbd9064cc	-0.070504755
153	0xbd17db35	-0.037074286
154	0x3de6e600	0.11274338
155	0x3c5392d7	0.012913427
156	0x3da03f51	0.07824577
157	0xbd680eda	-0.05665479
158	0x3ca89cae	0.020582523
159	0xbd80868c	-0.06275663
160	0xbd2c3f9c	-0.04205285
161	0x3d3db065	0.0463108
162	0x3d87e223	0.06634929
163	0xbda89b1d	-0.082327105
164	0xbd98376f	-0.07432448
165	0x3cf4408e	0.029815938
166	0xbd94ea9f	-0.07271313
167	0xbd7f1828	-0.062278897
168	0xbd9dd1ee	-0.077060565
169	0xbce5d991	-0.028057845
170	0x3e0828c5	0.13296802
171	0x3d41786e	0.04723399
172	0x3e1e502d	0.15460272
173	0xbda4d60d	-0.080486394
174	0x3d0062bd	0.031344164
175	0x3db0c8a8	0.08632022
176	0x3d6f439a	0.05841408
177	0x3e1c7068	0.15277255
178	0xbce7e027	-0.028305126
179	0xbb4e3a0e	-0.0031467709
180	0x3e0e1a42	0.13877204
181	0x3cb1fc97	0.02172689
182	0xbd224549	-0.039616857
183	0xbd86c3ac	-0.0658029
184	0xbbf0eb92	-0.007352301
185	0x3c85a1d8	0.016312525
186	0xbd8627f0	-0.06550586
187	0x3e00cd48	0.12578309
188	0xbda0dd3e	-0.078546986
189	0x3cecd038	0.02890788
190	0x3d9fd067	0.078034215
191	0x3d35ac77	0.04435393
192	0x3db29450	0.087196946
193	0x3d750d37	0.059827056
194	0xbb444cc0	-0.0029952973
195	0x3d938d6b	0.07204708
196	0xbd78bee0	-0.060728908
197	0xbc9f4904	-0.019443996
198	0xbd8ca0a1	-0.06866575
199	0x3d4f0085	0.050537605
200	0x3d99b3f6	0.07505028
201	0xbd8fbc9b	-0.070183955
202	0x3df85a4f	0.121266
203	0x3d8458af	0.064622276
204	0x3d80e6d7	0.06294029
205	0x3d463f8a	0.04840044
206	0xbd8f0060	-0.069824934
207	0xbc77f302	-0.015133621
208	0x3e022eb4	0.12713128
209	0xbd81c1f6	-0.06335823
210	0x3d4909ec	0.049081728
211	0x3dee97d4	0.11650053
212	0xbde28aa2	-0.11061598
213	0xbd9d2766	-0.0767353
214	0x3c21742c	0.009854358
215	0xbc04cae4	-0.0081050135
216	0x3c9c22ed	0.019059623
217	0x3e7c1b41	0.24619772
218	0x3cd3c7e5	0.025852153
219	0xbda4e18d	-0.08050833
220	0xbc84b089	-0.01619746
221	0xbda7cda4	-0.0819352
222	0x3d8931b6	0.06698935
223	0x3dac95df	0.08427023
224	0x3df71c52	0.120659485
225	0x3dc24f68	0.09487802
226	0x3dfd41f0	0.12366092
227	0x3e83655f	0.25663278
228	0x3d39252f	0.045201477
229	0x3d0566f5	0.03256889
230	0xbd0043d0	-0.03131467
231	0xbe012f3e	-0.12615678
232	0xbd2925dd	-0.041295875
233	0x3d4ec933	0.050484847
234	0x3e1110a8	0.1416651
235	0xbd463f8e	-0.048400454
236	0x3c0e97d6	0.008703193
237	0x3ceac6e8	0.028659299
238	0x3d9f0e75	0.07766429
239	0x3adc497e	0.001680657
240	0x3db99ae3	0.090627454
241	0x3de3ea32	0.111286536
242	0xbd8492d1	-0.064733155
243	0xbcc38107	-0.023865236
244	0x393ef804	0.00018212205
245	0x3cdb86ba	0.026797641
246	0x3dfb4760	0.12269473
247	0x3d89d588	0.06730181
248	0xbcee906f	-0.029121606
249	0x3dfd45b7	0.12366813
250	0x3dda8611	0.106701024
251	0xbd0b5374	-0.034015134
252	0x3d7fc427	0.062442925
253	0x3da211f4	0.079135805
254	0xbd413b64	-0.04717578
255	0x3cf2385e	0.029567894

fc2.bias f4 [2]
0	0xbcba9f5b	-0.022781065
1	0xbd9490fc	-0.07254216
